rate/src/output/model/0_MNIST_label_conv_1_100_0.05_iid_fix_e2_bn_1_1_best.pt (torch, 252271 bytes, 18 tensors)

blocks.0.weight f4 [4, 1, 3, 3]
0.06999954 -0.03731186 -0.43158466 -0.12443979 -0.063169435 0.10003799 0.042298622 0.36585066
0.024135876 0.01712277 -0.086529896 -0.19234383 -0.3655596 -0.15829581 -0.15636809 0.004075706
0.18015929 0.22653644 -0.19019343 -0.16825575 0.07562882 0.21414353 -0.015858728 0.26057297
-0.111002795 0.08765842 0.37235236 -0.29853627 -0.21449305 -0.07179326 -0.14062864 0.2658412
-0.22306198 -0.14857446 -0.23713613 -0.2953476
00000000: eb5b 8f3d 52d4 18bd aaf8 dcbe 4ada febd
00000010: fa5e 81bd b8e0 cc3d 5241 2d3d c750 bb3e
00000020: 9ab8 c53c 0d45 8c3c 9636 b1bd c8f5 44be
00000030: a12a bbbe 4c18 22be f51e 20be 808d 853b
00000040: ad7b 383e 2bf9 673e 11c2 42be 3c4b 2cbe
00000050: 48e3 9a3d 7148 5b3e 2aea 81bc d269 853e
00000060: 6f55 e3bd 4286 b33d f8a4 be3e bfd9 98be
00000070: 11a4 5bbe 5808 93bd f400 10be 561c 883e
00000080: 5c6a 64be e723 18be d0d3 72be cd37 97be

blocks.0.bias f4 [4]
-0.1899885 0.27977106 0.14522935 0.15774594
00000000: 588c 42be 273e 8f3e 01b7 143e 2788 213e

blocks.2.weight f4 [4]
0.8656304 1.0849986 0.9534552 0.97999775
00000000: f499 5d3f 3ce1 8a3f a415 743f 22e1 7a3f

blocks.2.bias f4 [4]
0.043121308 0.062912256 0.08921149 0.057805523
00000000: f89f 303d 24d8 803d 83b4 b63d 7cc5 6c3d

blocks.5.weight f4 [8, 4, 3, 3]
0.019280434 -0.095541045 0.098158546 -0.15490112 -0.16618028 -0.018784937 0.050496962 0.060860887
-0.020183634 0.011173358 0.12105465 0.21405463 -0.01475596 -0.03770817 0.11141261 -0.16082771
-0.045764573 -0.08094103 -0.17405628 -0.08241271 -0.005270269 0.05028926 -0.055259623 0.10283403
0.06745571 -0.088533506 -0.066847585 0.06649219 0.11245501 0.13626994 -0.13541512 -0.04217502
0.06132481 0.09192048 0.14372948 0.14686677 -0.032659106 -0.12418114 0.004640446 -0.038192328
-0.11921239 0.05451208 0.13007055 -0.078990825 0.053688537 -0.05235525 -0.058954038 -0.061479636
0.14186363 -0.113968976 0.01689424 0.025673632 0.0786188 0.049281478 -0.20385072 -0.0845795
0.17252356 -0.05316331 -0.23621912 -0.22231774 0.1364659 0.08752483 -0.07941581 0.007313067
-0.16200744 -0.025973812 -0.073787615 -0.097265445 0.02016625 0.02445295 -0.04253608 0.12600403
-0.086724035 0.14141859 0.078691 -0.12790895 0.011173847 0.095295265 0.04684492 0.0393228
0.108573474 -0.069986746 -0.20616879 -0.0089701265 -0.18166107 -0.25008878 -0.115099564 -0.061593078
-0.14065638 -0.18336548 0.0011397181 0.09918361 -0.119384974 -0.029442381 0.11335847 0.00038156006
-0.004130682 0.012844719 0.096152775 0.049922932 0.08823637 0.08835797 0.13309471 -0.061211046
-0.19281636 -0.055484742 0.070319 -0.0775938 -0.06313549 -0.08379473 -0.14854309 -0.11113382
-5.4331496e-05 0.05902764 0.09132277 -0.12800406 0.09084016 -0.12162241 -0.057644434 -0.09757845
-0.006337085 -0.021220783 -0.16359904 -0.13472496 -0.02150815 0.010876164 -0.09114835 -0.022977747
-0.14185213 0.0035026912 0.1219551 -0.11874504 0.20983192 0.04221679 -0.20330168 0.09589862
-0.006773156 -0.06566911 0.12469908 -0.12644236 0.024826823 -0.04313391 0.122266844 0.06500487
0.043625064 0.0648214 -0.062077757 -0.0501817 -0.05237145 0.12723225 0.19798592 0.21753988
-0.062028065 0.11494857 -0.15187126 -0.2100656 -0.0030224212 0.14047545 -0.07481733 0.040631466
0.0027949223 0.05879306 -0.06754859 -0.060710553 -0.13999772 0.063016236 -0.048103016 0.06602418
0.008794968 0.07275329 -0.003196775 0.015567205 -0.0004561236 -0.09102004 0.020998042 0.007105017
-0.14992417 -0.08977401 0.08780517 -0.19803388 0.029063629 0.1587113 0.107625835 0.04660358
0.011288326 0.1017963 -0.10675387 -0.02167864 -0.012085622 -0.011060199 0.034863826 0.15360865
0.035123084 0.20415777 0.13937554 -0.13256034 0.04721785 -0.089679 0.022087028 0.06798686
0.10356179 0.14352575 0.032108974 0.09971225 -0.08146768 -0.18167818 0.054763764 -0.17051376
-0.0098714195 -0.041584734 -0.14101072 -0.029939072 0.10191118 -0.042201363 -0.0750718 -0.05294805
-0.13717553 0.056345504 -0.037822418 -0.16100793 -0.086527444 0.094718926 -0.009160859 0.09352944
0.0664541 -0.035693116 -0.014321426 0.07862008 0.08084374 0.048844896 -0.07375169 -0.09262689
-0.17977512 0.020793388 -0.06969139 -0.17330487 0.16804539 -0.12491032 -0.03373226 0.06395391
-0.042398177 -0.106881395 -0.14719419 0.13158703 0.056879558 0.15672731 -0.07365483 0.05453377
-0.03608486 -0.0173502 -0.10592766 0.055575483 0.025565915 -0.054021098 -0.03644333 -0.10522679
00000000: 00f2 9d3c 06ab c3bd 5907 c93d 669e 1ebe
00000010: 2a2b 2abe dee2 99bc e7d5 4e3d 4449 793d
00000020: 2658 a5bc 7610 373c 80eb f73d 2331 5b3e
00000030: fbc2 71bc e273 1abd 4b2c e43d 05b0 24be
00000040: a273 3bbd 69c4 a5bd cf3b 32be ffc7 a8bd
00000050: 38b2 acbb 1cfc 4d3d ea57 62bd a69a d23d
00000060: 3826 8a3d 0e51 b5bd 63e7 88bd 0f2d 883d
00000070: d04e e63d 598a 0b3e 43aa 0abe b7bf 2cbd
00000080: b92f 7b3d ce40 bc3d d22d 133e 3e64 163e
00000090: 8ec5 05bd ae52 febd e20e 983b 8f6f 1cbd
000000a0: a025 f4bd 0f48 5f3d 3731 053e f1c5 a1bd
000000b0: 83e8 5b3d 7572 56bd ca79 71bd 12d2 7bbd
000000c0: b344 113e 9168 e9bd ca65 8a3c 8251 d23c
000000d0: e502 a13d 60db 493d 3ebe 50be 0438 adbd
000000e0: 04aa 303e c5c1 59bd 6de3 71be 43a7 63be
000000f0: b8bd 0b3e 3840 b33d c2a4 a2bd 74a2 ef3b
00000100: 47e5 25be 08c7 d4bc f61d 97bd 1b33 c7bd
00000110: b133 a53c 8e51 c83c 503a 2ebd 3307 013e
00000120: 5f9c b1bd 09d0 103e bf28 a13d 90fa 02be
00000130: 8312 373c 2a2a c33d 75e0 3f3d f210 213d
00000140: c55b de3d 3655 8fbd e91d 53be 70f7 12bc
00000150: 5c05 3abe a30b 80be 52b9 ebbd 0649 7cbd
00000160: 3a08 10be 29c4 3bbe 9862 953a c720 cb3d
00000170: 1c80 f4bd 2631 f1bc 7c28 e83d 200c c839
00000180: ac5a 87bb a872 523c bfeb c43d fd7b 4c3d
00000190: 45b5 b43d 06f5 b43d fb49 083e 6fb8 7abd
000001a0: a771 45be f843 63bd 6803 903d 80e9 9ebd
000001b0: 2e4d 81bd 929c abbd ae1b 18be 219a e3bd
000001c0: 00e2 63b8 f7c6 713d 6f07 bb3d 7f13 03be
000001d0: 680a ba3d 2c15 f9bd 921c 6cbd 36d7 c7bd
000001e0: 52a7 cfbb 35d7 adbc 8286 27be 57f5 09be
000001f0: dc31 b0bc f031 323c fcab babd d43b bcbc
00000200: af41 11be 688d 653b 98c3 f93d 9930 f3bd
00000210: 2ede 563e 83eb 2c3d 512e 50be 7f66 c43d
00000220: 5af1 ddbb 877d 86bd 3b62 ff3d 1b7a 01be
00000230: 9f61 cb3c 2fad 30bd 0a67 fa3d 4621 853d
00000240: 32b0 323d 15c1 843d 3f45 7ebd 548b 4dbd
00000250: 7283 56bd 2c49 023e d2bc 4a3e c6c2 5e3e
00000260: 2411 7ebd 286a eb3d 2484 1bbe 701b 57be
00000270: d013 46bb ccd8 0f3e d439 99bd 2e6d 263d
00000280: 042b 373b fed0 703d ea56 8abd a1ab 78bd
00000290: 905b 0fbe a80e 813d ab07 45bd af37 873d
000002a0: c518 103c adff 943d fc80 51bb 970d 7f3c
000002b0: e023 efb9 b768 babd 1604 ac3c 34d1 e83b
000002c0: b985 19be 70db b7bd 32d3 b33d 65c9 4abe
000002d0: d916 ee3c 3785 223e ef6a dc3d 65e3 3e3d
000002e0: acf2 383c 947a d03d c6a1 dabd 6797 b1bc
000002f0: c602 46bc d635 35bc 5fcd 0e3d 964b 1d3e
00000300: 39dd 0f3d bc0e 513e 76b8 0e3e e6bd 07be
00000310: 8167 413d a0a9 b7bd dbef b43c b23c 8b3d
00000320: 3418 d43d 6af8 123e b384 033d f035 cc3d
00000330: 87d8 a6bd d809 3abe f84f 603d 299b 2ebe
00000340: bcbb 21bc c154 2abd 1d65 10be c942 f5bc
00000350: cfb6 d03d 56db 2cbd 3ebf 99bd 0ee0 58bd
00000360: be77 0cbe 8bca 663d aeeb 1abd 43df 24be
00000370: 4d35 b1bd fffb c13d 6d17 16bc 5d8c bf3d
00000380: 1619 883d f232 12bd 6aa4 6abc 9103 a13d
00000390: 6791 a53d 9611 483d 200b 97bd 2bb3 bdbd
000003a0: f816 38be e556 aa3c 5cba 8ebd d576 31be
000003b0: 1714 2c3e fbd0 ffbd d72a 0abd 44fa 823d
000003c0: b6a9 2dbd a2e4 dabd 13ba 16be c0be 063e
000003d0: 8afa 683d 207d 203e 58d8 96bd cd5e 5f3d
000003e0: b8cd 13bd 0222 8ebc 9af0 d8bd 1ea3 633d
000003f0: 9c6f d13c 3a45 5dbd 9a45 15bd 2581 d7bd

blocks.5.bias f4 [8]
0.07599869 -0.07916643 -0.13485506 -0.13993782 0.16234446 0.10330124 -0.112486824 0.06366812
00000000: 34a5 9b3d 0222 a2bd 7217 0abe dc4b 0fbe
00000010: a03d 263e 9a8f d33d 7e5f e6bd 6e64 823d

blocks.7.weight f4 [8]
0.98772794 1.0438343 0.9145436 0.96742296 0.880119 1.0252416 1.0282346 0.9492483
00000000: bddb 7c3f 5d9c 853f 881f 6a3f 08a9 773f
00000010: 7b4f 613f 1e3b 833f 319d 833f f001 733f

blocks.7.bias f4 [8]
-0.01629627 0.0054300656 -0.021139303 -0.04372229 0.028832722 0.0044942023 0.028699921 -0.009795582
00000000: c17f 85bc b1ee b13b 552c adbc 2516 33bd
00000010: 9a32 ec3c 1a44 933b 191c eb3c a67d 20bc

blocks.10.weight f4 [16, 8, 3, 3]
0.13251424 0.12347251 0.08397837 0.13773434 0.02875883 -0.020756682 0.1254651 0.078445956
-0.016863532 0.11911239 0.10574621 0.13461162 -0.058474425 0.039614167 -0.039487902 0.09876467
0.04974115 0.06261891 0.02900299 -0.02258598 -0.021916527 0.06777526 -0.09373698 -0.06405897
-0.123825364 -0.20156229 -0.15061812 0.09162173 0.09528549 0.08578767 0.068946555 -0.1019424
-0.12888843 -0.022184288 -0.051846698 -0.002337601 -0.052049447 0.025267694 -0.035624914 -0.1353758
0.03318081 -0.011616258 0.0066949036 0.0748091 0.13416436 0.00849045 0.0575905 0.069423184
0.0154672 0.10467643 0.02241983 -0.026449215 -0.055716727 -0.013187677 0.021460958 -0.014408166
-0.05135263 -0.011206044 -0.05384449 0.10484043 0.12678622 0.020399634 -0.058333516 0.06751596
0.049221516 -0.01879537 -0.004417196 0.058656733 -0.024388628 -0.09708247 -0.040691774 0.034739595
-0.07264687 0.024719574 -0.06782389 -0.073579125 0.073693186 -0.0060552247 -0.115455955 -0.022842975
-0.050461557 -0.026630796 0.015992166 0.1323334 -0.0064587025 -0.029034415 0.04497003 0.08505462
0.093398154 -0.037186783 0.038746778 -0.047957595 -0.06450684 0.039652374 -0.06722466 0.044658206
0.100023806 0.005380655 -0.09418301 -0.036034085 0.0012982553 -0.07037262 0.03737123 -0.10329443
-0.11094506 -0.10703324 -0.04989536 0.115565136 -0.055964857 0.07775649 0.024752896 0.00035397988
0.016148003 -0.074309155 0.059660044 0.0491444 0.07422287 0.10742924 0.02426292 0.17808975
0.0068705357 0.056689464 -0.061525136 0.04415291 -0.049706213 -0.047743488 -0.022710996 -0.1103377
0.0052663945 0.027968448 0.021741886 -0.08898507 -0.11838053 -0.042778466 0.020755978 0.08364298
-0.0012520431 -0.07457448 -0.00935796 -0.13388145 -0.11706263 -0.022135757 -0.09597364 0.00230633
-0.019520145 -0.094905294 -0.09234539 0.07424566 -0.018356843 0.07009742 -0.009856488 0.04230932
-0.061697938 -0.0594652 -0.015018785 0.027338155 0.073396266 -0.100375235 0.05296058 0.085855946
-0.035384797 -0.03877949 0.027458563 0.100429356 -0.021154292 0.083253086 0.054316826 0.08484232
0.08960998 -0.10212508 -0.087809876 -0.016784225 -0.021434445 0.016822852 -0.035164706 0.06566247
-0.047137182 -0.062821075 -0.07062827 0.02347836 -0.0837782 -0.0032499032 0.084149286 0.033004273
0.06439323 0.0068482254 0.11654197 0.0371627 0.009656938 -0.09247001 0.026767906 -0.057387963
-0.017216634 -0.051455166 0.12053547 0.14666848 -0.058695674 -0.10186859 -0.023312498 -0.021528121
-0.064843014 -0.04466589 -0.05050852 0.0021601534 -0.09566244 0.014841812 -0.071357735 0.0428132
-0.048687644 0.0065810094 -0.019283999 -0.0287559 -0.018677428 -0.021888804 -0.22248873 -0.21336725
0.105480164 -0.043870892 0.017446846 0.045210674 -0.008870245 -0.056993745 0.08571499 0.0036246069
-0.11529577 -0.07285381 0.02405402 0.084010534 -0.066576965 0.0824492 -0.046698302 -0.010257619
0.06418671 0.018664386 0.11176508 0.038474806 0.037933767 -0.02950026 -0.02136696 0.11850773
-0.05602967 -0.09376815 0.042918656 0.10446515 -0.051307507 -0.074268855 -0.13093194 0.009564278
0.015680045 -0.094768316 0.0013728971 0.03873812 0.0676585 0.14084207 -0.0012995321 -0.0561845
00000000: d0b1 073e 28df fc3d dafc ab3d 3b0a 0d3e
00000010: a397 eb3c eb09 aabc ec79 003e 46a8 a03d
00000020: 6425 8abc 32f1 f33d 7891 d83d a1d7 093e
00000030: e182 6fbd 7742 223d 11be 21bd 2245 ca3d
00000040: 60bd 4b3d 583e 803d ae97 ed3c 3c06 b9bc
00000050: 4a8a b3bc c1cd 8a3d 2cf9 bfbd 5931 83bd
00000060: 2798 fdbd 5866 4ebe a33b 1abe 2ca4 bb3d
00000070: 0a25 c33d 72b1 af3d da33 8d3d 2dc7 d0bd
00000080: 54fb 03be d3bb b5bc 345d 54bd 7032 19bb
00000090: cd31 55bd 32fe ce3c 6eeb 11bd f49f 0abe
000000a0: 9ae8 073d 1e52 3ebc ec60 db3b 8335 993d
000000b0: 6262 093e 871b 0b3c 04e4 6b3d be2d 8e3d
000000c0: 246a 7d3c 9960 d63d cba9 b73c 06ac d8bc
000000d0: 3937 64bd 2011 58bc e4ce af3c 3a10 6cbc
000000e0: 2357 52bd 8e99 37bc 0a8c 5cbd 94b6 d63d
000000f0: 3fd4 013e 221d a73c 20ef 6ebd cf45 8a3d
00000100: 809c 493d bff8 99bc 20be 90bb 0b42 703d
00000110: a9ca c7bc 2dd3 c6bd 6bac 26bd 1b4b 0e3d
00000120: e2c7 94bd b480 ca3c 40e7 8abd a7b0 96bd
00000130: 74ec 963d e86a c6bb 2c74 ecbd 3121 bbbc
00000140: c7b0 4ebd d428 dabc 0102 833c 6882 073e
00000150: 86a3 d3bb 95d9 edbc 7f32 383d 1e31 ae3d
00000160: 8847 bf3d 2b51 18bd f1b4 1e3d 2f6f 44bd
00000170: 2a1c 84bd 876a 223d 15ad 89bd 86eb 363d
00000180: 48d9 cc3d 3550 b03b 06e3 c0bd 7a98 13bd
00000190: 382a aa3a 851f 90bd 9312 193d 088c d3bd
000001a0: 2a37 e3bd 3e34 dbbd 145f 4cbd 6aad ec3d
000001b0: 683b 65bd cb3e 9f3d 96c6 ca3c 6096 b939
000001c0: d148 843c 662f 98bd 175e 743d a34b 493d
000001d0: 2902 983d dd03 dc3d 08c3 c63c 295d 363e
000001e0: 3b22 e13b 3633 683d c801 7cbd afd9 343d
000001f0: be98 4bbd ad8e 43bd 690c babc bbf8 e1bd
00000200: b891 ac3b 161e e53c 0a1c b23c ce3d b6bd
00000210: 7e71 f2bd 7938 2fbd 7108 aa3c 034d ab3d
00000220: 981b a4ba 81ba 98bd 2152 19bc 3818 09be
00000230: 88be efbd 0c56 b5bc d48d c4bd cc25 173b
00000240: b6e8 9fbc b55d c2bd 941f bdbd 1c0e 983d
00000250: 1761 96bc 3c8f 8f3d 1b7d 21bc 8a4c 2d3d
00000260: fab6 7cbd c891 73bd 5a11 76bc 44f4 df3c
00000270: c850 963d 8891 cdbd 31ed 583d 3ed5 af3d
00000280: a6ef 10bd 3ed7 1ebd c8f0 e03c e8ad cd3d
00000290: c44b adbc 9880 aa3d 527b 5e3d cfc1 ad3d
000002a0: 7085 b73d f426 d1bd aad5 b3bd 127f 89bc
000002b0: 4a97 afbc 14d0 893c de08 10bd 0c7a 863d
000002c0: eb12 41bd 56a8 80bd 8ea5 90bd b155 c03c
000002d0: e893 abbd 54fc 54bb 7656 ac3d 7d2f 073d
000002e0: 99e0 833d 1467 e03b 8ead ee3d ea37 183d
000002f0: 2238 1e3c eb60 bdbd 5e48 db3c a40f 6bbd
00000300: e609 8dbc a7c2 52bd 4ddb f63d 4330 163e
00000310: e06a 70bd 7ba0 d0bd daf9 bebc be5b b0bc
00000320: 6acc 84bd 95f3 36bd 06e2 4ebd 5c91 0d3b
00000330: abea c3bd 122b 733c 0124 92bd e55c 2f3d
00000340: b26c 47bd 82a5 d73b 7af9 9dbc 7e91 ebbc
00000350: 6801 99bc 2650 b3bc 16d4 63be f27c 5abe
00000360: fc05 d83d f7b1 33bd b0ec 8e3c d42e 393d
00000370: 8154 11bc 4672 69bd 578b af3d d08a 6d3b
00000380: 3020 ecbd 6134 95bd f00c c53c b70d ac3d
00000390: 8159 88bd 20db a83d b846 3fbd 930f 28bc
000003a0: 5274 833d 0ee6 983c 17e5 e43d c297 1d3d
000003b0: 7060 1b3d 87aa f1bc c309 afbc 2eb4 f23d
000003c0: 5e7f 65bd 8409 c0bd 79cb 2f3d d3f1 d53d
000003d0: d227 52bd 451a 98bd 0613 06be 7db3 1c3c
000003e0: 7073 803c e415 c2bd c8f2 b33a ddab 1e3d
000003f0: 8a90 8a3d e738 103e 1055 aaba b821 66bd

blocks.10.bias f4 [16]
0.09064954 0.010473171 0.07608803 0.0480263 0.061103027 -0.10097094 -0.06380397 0.06901555
-0.023973184 -0.100108325 0.10464432 -0.0024884376 0.092824884 -0.08994046 0.0396178 -0.043343194
00000000: 77a6 b93d aa97 2b3c 0bd4 9b3d 3ab7 443d
00000010: 2b47 7a3d dac9 cebd a8ab 82bd 0658 8d3d
00000020: 6963 c4bc 9805 cdbd c34f d63d 0e15 23bb
00000030: f91a be3d b432 b8bd 4646 223d a288 31bd

blocks.12.weight f4 [16]
0.9890063 0.96029955 0.9956529 0.9414324 0.93480617 1.0468066 0.9542064 0.958138
1.022477 1.0077119 1.0257 1.0004725 0.95275885 0.9340042 0.94327295 0.94017744
00000000: 842f 7d3f 31d6 753f 1ce3 7e3f b701 713f
00000010: 754f 6f3f c2fd 853f df46 743f 8848 753f
00000020: 87e0 823f b4fc 803f 234a 833f 7c0f 803f
00000030: 01e8 733f e61a 6f3f 567a 713f 78af 703f

blocks.12.bias f4 [16]
-0.044244803 -0.030520264 -0.031175153 -0.015838325 -0.028355435 0.007837678 -0.011421873 -0.03336649
-0.01962778 -0.027128285 -0.05457911 -0.011513022 -0.029090561 -0.031811856 -0.02854224 -0.020260468
00000000: 0a3a 35bd a205 fabc 0963 ffbc 60bf 81bc
00000010: a849 e8bc 9b69 003c cf22 3bbc 4dab 08bd
00000020: 70ca a0bc 233c debc 588e 5fbd 1da1 3cbc
00000030: 544f eebc 264d 02bd 6ad1 e9bc 48f9 a5bc

blocks.15.weight f4 [32, 16, 3, 3]
0.062170833 0.038926058 -0.015813716 0.11168088 0.02518449 0.05064256 0.05711503 0.009688622
-0.046113607 -0.10120167 -0.055956557 -0.089080885 -0.029232044 -0.0428351 -0.034832083 -0.044144724
0.025511134 0.019074628 -0.021463662 -0.021188099 0.02969496 0.009331511 -0.07019172 -0.018622667
-0.009044066 -0.03017136 0.034451295 0.031887636 0.081422746 0.025484515 0.04070097 0.020045724
0.025619129 0.073752284 0.046899687 0.028187696 0.083521344 -0.044684738 0.020879569 0.069765754
0.020328667 0.06429097 0.014735369 -0.02128253 -0.033258498 0.038376793 -0.049778566 0.017687483
0.04977938 0.031564236 0.036621794 -0.024212033 -0.06010717 -0.037179723 -0.026627276 -0.05028403
-0.0034852126 0.03728361 -0.016574247 -0.04541163 0.05204814 -0.034698043 -0.052232426 -0.034406684
-0.02065367 0.04694516 -0.0065662647 -0.01097193 0.08203958 -0.010067842 -0.0021048281 0.0029288027
0.019475255 -0.05371296 0.0077597382 -0.0022135451 -0.020688193 0.0071068085 -0.04355247 0.016048614
0.015574758 -0.014729439 -0.09019629 0.020040832 0.0345519 -0.045287292 0.02678074 0.0065123877
-0.046934046 -0.0051944465 0.021209989 -0.06514756 -0.12215504 -0.054520693 -0.022841107 -0.064017825
-0.06706198 -0.0018579923 -0.03203781 -0.02775805 -0.02687972 -0.016090099 -0.019564688 -0.060574584
-0.07745416 -0.015472402 -0.01700785 -0.0014440521 -0.035912864 0.020370986 -0.04115919 -0.0055860803
0.030698823 -0.03448514 -0.08121913 -0.0049163178 -0.013088728 -0.020687623 0.012101958 0.08234943
0.04431531 0.057643734 0.062484436 -0.002016157 -0.00015475228 0.037460428 0.03791721 0.008937381
0.024730083 0.038247034 -0.022212073 -0.024486039 0.07525926 0.06415519 0.033594027 -0.0063674897
-0.02030588 -0.06263095 -0.07929233 -0.09854945 0.0007031746 -0.023340305 -0.037677437 0.0008679088
-0.03593278 -0.09466525 -0.012992851 -0.029186644 -0.06957802 -0.057589382 -0.018384326 0.06557242
0.028005885 -0.0387962 -0.010586104 -0.00013913447 -0.067945875 -0.03782125 0.025892738 0.06010413
-0.00986418 0.015787564 -0.033818595 0.10939737 0.08948698 0.027913481 0.076480515 0.051790446
-0.026822388 0.01542585 0.013900235 0.03963953 0.092616856 0.006733628 -0.042197973 -0.03670469
-0.050364576 0.034551583 -0.004009608 -0.03559637 0.034804396 -0.01195652 -0.014579166 0.08162836
0.0019967593 0.039749444 0.05710897 -0.012352606 0.026479853 0.021232449 0.11786266 0.14299743
0.07488723 0.078251116 -0.008502686 0.013588678 0.016555877 -0.029139219 0.053230457 -0.03853232
-0.03816545 -0.01488136 0.057530142 -0.0035877386 0.025141904 0.029231088 0.021800622 0.019216329
-0.06170311 -0.058463987 0.03493192 -0.031226594 0.052613053 0.030824317 0.045575507 -0.048932664
0.08573335 -0.016916046 0.009864958 0.05539525 0.03809747 0.034103148 0.05648255 -0.0031615784
0.0623983 -0.072997786 -0.01797666 0.03293239 0.0073698238 0.0024121683 0.014351143 -0.028988814
0.0010430468 -0.018151738 0.10283874 0.045469545 -0.055761866 0.08946604 -0.007980483 -0.03299167
-0.024106016 -0.042806335 -0.034156647 -0.03548606 -0.04498969 -0.035537798 -0.023728468 0.057927817
0.04328248 -0.06624569 -0.012442021 -0.008804026 -0.0725277 -0.04603955 -0.022307478 0.014434649
00000000: d8a6 7e3d ee70 1f3d c48b 81bc f2b8 e43d
00000010: b44f ce3c 936e 4f3d 73f1 693d 07bd 1e3c
00000020: 9fe1 3cbd d242 cfbd b432 65bd 0a70 b6bd
00000030: 0a78 efbc dc73 2fbd 16ac 0ebd 19d1 34bd
00000040: bafc d03c 6542 9c3c 90d4 afbc aa92 adbc
00000050: d842 f33c 32e3 183c adc0 8fbd 908e 98bc
00000060: 902d 14bc ee29 f7bc cd1c 0d3d 9c9c 023d
00000070: f8c0 a63d e7c4 d03c 0fb6 263d ee36 a43c
00000080: 35df d13c 700b 973d e319 403d e2e9 e63c
00000090: 3d0d ab3d 5807 37bd a10b ab3c 59e1 8e3d
000000a0: 4e88 a63c fcaa 833d 9e6c 713c b358 aebc
000000b0: 103a 08bd fc30 1d3d 9ce4 4bbd 57e5 903c
000000c0: 77e5 4b3d 8049 013d bc00 163d 5058 c6bc
000000d0: f032 76bd c449 18bd 7221 dabc a1f6 4dbd
000000e0: 2a68 64bb b3b6 183d b7c6 87bc 8c01 3abd
000000f0: 6e30 553d 891f 0ebd abf1 55bd 06ee 0cbd
00000100: e331 a9bc 9149 403d d229 d7bb 9cc3 33bc
00000110: 5e04 a83d 97f3 24bc 28f1 09bb 28f1 3f3b
00000120: 928a 9f3c 1f02 5cbd 6745 fe3b 2011 11bb
00000130: 497a a9bc 3be0 e83b 1364 32bd 6278 833c
00000140: 452d 7f3c bf53 71bc d5b8 b8bd ac2c a43c
00000150: 4b86 0d3d 2b7f 39bd 4863 db3c de65 d53b
00000160: ea3d 40bd 2d36 aabb 92c0 ad3c 156c 85bd
00000170: 6c2c fabd 1751 5fbd 461d bbbc c71b 83bd
00000180: cb57 89bd e087 f3ba 143a 03bd da64 e3bc
00000190: dc32 dcbc 62cf 83bc 2046 a0bc 0e1d 78bd
000001a0: 49a0 9ebd f57f 7dbc 0c54 8bbc 5946 bdba
000001b0: 5e19 13bd 0ee1 a63c 8a96 28bd 700b b7bb
000001c0: 197c fb3c 4a40 0dbd 3756 a6bd 1019 a1bb
000001d0: 1b72 56bc 1779 a9bc 4a47 463c d1a6 a83d
000001e0: f883 353d d61b 6c3d aeef 7f3d 8021 04bb
000001f0: 0045 22b9 1b70 193d 144f 1b3d 186e 123c
00000200: be96 ca3c eca8 1c3d 18f6 b5bc f296 c8bc
00000210: 8721 9a3d cc63 833d e499 093d 60a6 d0bb
00000220: 8458 a6bc a844 80bd 0464 a2bd 4bd4 c9bd
00000230: 4055 383a 2b34 bfbc a853 1abd 6084 633a
00000240: 402e 13bd dbdf c1bd f8df 54bc d418 efbc
00000250: ec7e 8ebd d8e2 6bbd ba9a 96bc d54a 863d
00000260: 996c e53c c4e8 1ebd 5771 2dbc a0e4 11b9
00000270: 3527 8bbd 74ea 1abd 021d d43c c02f 763d
00000280: 5f9d 21bc ec54 813c 5e85 0abd ba0b e03d
00000290: f344 b73d d0aa e43c d1a1 9c3d 3822 543d
000002a0: a0ba dbbc b4bc 7c3c d0bd 633c 0f5d 223d
000002b0: e8ad bd3d c4a5 dc3b c8d7 2cbd a857 16bd
000002c0: 164b 4ebd f685 0d3d 0863 83bb 80cd 11bd
000002d0: 0e8f 0e3d 48e5 43bc 74dd 6ebc c52c a73d
000002e0: 10dc 023b 50d0 223d 18eb 693d 9662 4abc
000002f0: 47ec d83c acef ad3c fa61 f13d eb6d 123e
00000300: 7a5e 993d 1f42 a03d da4e 0bbc 0ca3 5e3c
00000310: 31a0 873c 5fb5 eebc 2e08 5a3d 11d4 1dbd
00000320: 6053 1cbd f3d0 73bc baa4 6b3d 4420 6bbb
00000330: 65f6 cd3c 0976 ef3c 3897 b23c 906b 9d3c
00000340: 66bc 7cbd ef77 6fbd c614 0f3d eace ffbc
00000350: c980 573d 4783 fc3c 62ad 3a3d 9e6d 48bd
00000360: f794 af3d 8593 8abc a2a0 213c 21e6 623d
00000370: 180c 1c3d beaf 0b3d 3f5a 673d 7c32 4fbb
00000380: 5c95 7f3d dd7f 95bd ca43 93bc 1de4 063d
00000390: 907e f13b 7815 1e3b 0e21 6b3c f379 edbc
000003a0: d8b6 883a f4b2 94bc 1e9d d23d 463e 3a3d
000003b0: 8e66 64bd f939 b73d 92c0 02bc 4622 07bd
000003c0: fb79 c5bc b255 2fbd d7e7 0bbd d559 11bd
000003d0: 1c47 38bd 1590 11bd 3462 c2bc b845 6d3d
000003e0: f848 313d d2ab 87bd 9ed9 4bbc c33e 10bc
000003f0: 6789 94bd f893 3cbd 2cbe b6bc 4e7f 6c3c

blocks.15.bias f4 [32]
0.051502213 0.06346904 -0.06453344 0.04436548 -0.074761264 0.050944403 -0.04499108 -0.025324587
0.019899499 -0.07006352 -0.0028049015 -0.028466176 0.025744168 -0.0048229266 -0.0739444 -0.020088887
0.012691385 0.044552162 -0.046453442 -0.049468607 0.036657356 -0.048841562 -0.032160692 -0.081327096
-0.019601185 -0.06488001 0.012747608 0.06589064 0.03613421 -0.06783345 0.07293742 -0.07271416
00000000: fcf3 523d 0efc 813d 1c2a 84bd 94b8 353d
00000010: 6f1c 99bd 14ab 503d 9148 38bd 8275 cfbc
00000020: 4604 a33c 767d 8fbd 70d2 37bb e631 e9bc
00000030: 6fe5 d23c a409 9ebb 2970 97bd 7391 a4bc
00000040: 87ef 4f3c 547c 363d f745 3ebd 989f 4abd
00000050: 0626 163d 170e 48bd eeba 03bd d28e a6bd
00000060: aa92 a0bc d0df 84bd 58db 503c acf1 863d
00000070: 7701 143d 44ec 8abd 3760 953d 29eb 94bd

blocks.17.weight f4 [32]
1.1825199 1.232492 1.3160403 1.1178453 1.1770226 1.1526666 1.1733468 1.199836
1.2596112 1.2881944 1.1961715 1.288026 1.1907381 1.2736406 1.2252598 1.238486
1.2803028 1.1105485 1.0568031 1.2835444 1.2406509 1.095036 1.2544943 1.3384738
1.266183 1.2716211 1.300531 1.1361992 1.2684704 1.2406762 1.366783 1.0568004
00000000: d05c 973f 4cc2 9d3f 0274 a83f 8e15 8f3f
00000010: ada8 963f 948a 933f 3a30 963f 3a94 993f
00000020: f13a a13f 8ee3 a43f 261c 993f 09de a43f
00000030: 1b6a 983f a806 a33f 50d5 9c3f b686 9e3f
00000040: f6e0 a33f 7426 8e3f 5345 873f 2f4b a43f
00000050: a6cd 9e3f 242a 8c3f 4593 a03f 1c53 ab3f
00000060: 4912 a23f 7bc4 a23f cd77 a63f fa6e 913f
00000070: 3d5d a23f 7ace 9e3f bff2 ae3f 3c45 873f

blocks.17.bias f4 [32]
0.119676396 0.1286891 0.2064782 0.098656714 0.113602206 0.1125523 0.1086376 0.1570888
0.1424313 0.18512702 0.11047069 0.1720993 0.10649431 0.19544733 0.19789127 0.14055376
0.18025167 0.06908135 0.02520805 0.13781855 0.13014725 0.025814254 0.20003703 0.24953124
0.19513008 0.12052862 0.24495915 0.10201967 0.1658689 0.15729205 0.2563175 0.041038807
00000000: e618 f53d 13c7 033e 056f 533e 880c ca3d
00000010: 46a8 e83d d281 e63d 647d de3d e3db 203e
00000020: 83d9 113e f091 3d3e 753e e23d cd3a 303e
00000030: b019 da3d 5823 483e 02a4 4a3e 53ed 0f3e
00000040: e593 383e 867a 8d3d 1d81 ce3c 4e20 0d3e
00000050: 5245 053e 6a78 d33c 82d6 4c3e 1e85 7f3e
00000060: 2ed0 473e b6d7 f63d 92d6 7a3e b0ef d03d
00000070: 89d9 293e 2b11 213e 0c3c 833e 4f18 283d

blocks.21.weight f4 [10, 32]
-0.23449627 0.50171757 0.22263181 0.22975776 -0.05365238 -0.26354668 -0.3672496 0.003262639
-0.25755003 -0.25834268 0.55925 -0.1395283 0.10877513 -0.2849503 -0.027562696 0.48925543
0.28185594 -0.006212378 -0.13136098 -0.20088264 0.5551913 -0.11718473 -0.04866362 -0.2894289
0.07411263 -0.31638455 0.27422574 0.017953172 -0.3307128 -0.21170011 -0.07970002 -0.044521347
-0.090144195 -0.13227865 -0.28391793 0.007931102 -0.3015625 0.41631526 -0.2778381 0.12389877
-0.25838846 -0.24132787 -0.23275602 -0.21387593 -0.17989527 -0.3029368 0.14723408 -0.32452247
0.60807645 0.1829721 -0.10857415 0.63607997 -0.27769947 -0.26689947 0.45159727 -0.24005966
0.58721757 -0.2259454 -0.43889797 0.378232 -0.117813975 -0.079234935 -0.1862491 -0.37260565
0.29154775 0.14034323 -0.043420333 0.09912141 -0.0925702 -0.25278577 -0.04191776 -0.37125537
-0.22826731 0.05454682 -0.1095351 0.518813 0.25703776 0.47905695 0.14787132 0.24525398
-0.11963258 -0.22700307 -0.20125122 -0.21996813 0.27554023 -0.17018425 -0.2558672 0.32992253
-0.25748256 0.40806228 -0.071160235 0.07983092 -0.16065419 0.17220773 -0.28317812 -0.17027959
0.46158347 -0.24398226 0.5721029 0.041053064 0.23725358 -0.18613043 0.0740812 -0.13472117
-0.11431338 0.38896155 0.2778105 0.014528763 -0.070846334 -0.03113826 -0.22087766 -0.3176834
-0.29038 -0.33161715 -0.14420885 0.013928153 0.25504035 -0.32443705 -0.36651677 0.6303635
-0.28821242 -0.22253703 0.05923106 0.11756351 0.014268479 0.09039915 -0.18325657 0.02705054
0.039912358 -0.2989675 -0.4484521 0.1852842 -0.44177288 0.15400201 -0.046416014 0.31006825
-0.036433503 -0.20107278 0.020797377 0.17749928 -0.14825754 -0.34444848 0.40124545 0.007947246
0.2735591 -0.021252062 -0.10223712 -0.26351103 -0.00746173 0.21135288 0.29830128 -0.048598498
0.31630874 -0.06210223 0.45928678 0.07533842 0.4000788 -0.14616185 -0.20390522 0.16027787
-0.19568823 -0.0146987075 0.129354 -0.13927996 0.10612965 0.117440544 0.22307622 -0.054925524
0.31246454 0.62734133 0.20903394 -0.31521788 -0.14344653 -0.21195799 -0.38113865 -0.19704853
-0.22798692 0.17283362 -0.09949588 0.048459373 -0.13464944 0.22981736 -0.1540784 0.32514188
0.06405183 -0.24460112 -0.33739913 -0.25172594 -0.022664867 0.3239609 0.34618735 0.23613797
-0.30359882 -0.3050319 0.3652702 -0.32746765 -0.38452843 0.1941556 0.36695108 -0.078225404
0.044584736 -0.1443497 -0.08831024 -0.3014455 0.559102 0.31294504 -0.13656195 0.24347375
-0.038932383 -0.24904892 0.07014272 -0.031776495 0.05235569 -0.004177344 -0.18222585 -0.43127972
0.34775198 0.5409119 -0.2000644 0.071934894 -0.31082687 -0.19967958 0.48080337 0.09151589
-0.004237484 -0.2922075 -0.16078927 -0.20245762 0.10513166 -0.17860101 0.31457537 0.41771573
-0.29235595 0.003780147 -0.07924835 0.39540192 -0.2743625 0.019581005 0.28846717 0.11558449
-0.18878368 -0.017356213 0.29586583 0.23929226 -0.16868716 0.17595056 0.1777025 -0.23893355
-0.20654628 -0.19284478 -0.232761 -0.34042883 0.42099777 0.56058407 -0.4661206 0.02343757
00000000: ca1f 70be 9070 003f 98f9 633e 9e45 6b3e
00000010: 99c2 5bbd 97ef 86be 2408 bcbe 00d2 553b
00000020: 99dd 83be 7e45 84be 022b 0f3f 82e0 0ebe
00000030: 7fc5 de3d 01e5 91be 2acb e1bc b07f fa3e
00000040: 6c4f 903e 3491 cbbb 7e83 06be 2eb4 4dbe
00000050: 0421 0e3f 8cfe efbd 8153 47bd 0630 94be
00000060: 5dc8 973d 28fd a1be 5167 8c3e 8812 933c
00000070: 3053 a9be eac7 58be c439 a3bd 045c 36bd
00000080: 859d b8bd 0e74 07be b15d 91be 74f1 013c
00000090: 6666 9abe 4627 d53e cc40 8ebe a3be fd3d
000000a0: 7e4b 84be a71e 77be 9857 6ebe 4b02 5bbe
000000b0: 7736 38be 881a 9bbe 88c4 163e cf27 a6be
000000c0: e6aa 1b3f 0a5d 3b3e 205c debd 23d6 223f
000000d0: a02e 8ebe 0ca7 88be c237 e73e 33d2 75be
000000e0: e453 163f 3b5e 67be 3cb7 e0be a0a7 c13e
000000f0: 7448 f1bd ed45 a2bd 16b8 3ebe 2bc6 bebe
00000100: bf45 953e 23b6 0f3e 85d9 31bd 2a00 cb3d
00000110: 7295 bdbd 236d 81be f5b1 2bbd 2f15 bebe
00000120: e8be 69be 7d6c 5f3d f053 e0bd eed0 043f
00000130: 749a 833e f446 f53e 946b 173e dc23 7b3e
00000140: ed01 f5bd 7e73 68be cd14 4ebe 533f 61be
00000150: 9c13 8d3e c844 2ebe 0701 83be 9beb a83e
00000160: c1d4 83be 8aed d03e 75bc 91bd 657e a33d
00000170: 8882 24be 3957 303e b9fc 90be c65d 2ebe
00000180: ab54 ec3e 7cd6 79be 5675 123f 4227 283d
00000190: 9af2 723e fa98 3ebe e2b7 973d 59f4 09be
000001a0: 221d eabd f825 c73e 2e3d 8e3e 0c0a 6e3c
000001b0: e217 91bd aa15 ffbc c12d 62be 66a7 a2be
000001c0: b0ac 94be b9c9 a9be 7cab 13be e832 643c
000001d0: a694 823e 9d1c a6be 16a8 bbbe 815f 213f
000001e0: 9490 93be bfe0 63be 459c 723d 23c5 f03d
000001f0: 57c6 693c 3123 b93d 9ca7 3bbe 1899 dd3c
00000200: 247b 233d 4512 99be 839b e5be 24bb 3d3e
00000210: 0e30 e2be b4b2 1d3e b81e 3ebd 44c1 9e3e
00000220: 4c3b 15bd 06e6 4dbe 435f aa3c 5fc2 353e
00000230: d3d0 17be 8d5b b0be 0b70 cd3e 2a35 023c
00000240: f00f 8c3e ce18 aebc b261 d1bd ebea 86be
00000250: 8781 f4bb e46c 583e f2ba 983e 380f 47bd
00000260: 38f3 a13e e85e 7ebd a327 eb3e 084b 9a3d
00000270: 21d7 cc3e 74ab 15be 88cc 50be e21f 243e
00000280: 7f62 48be d9d2 70bc 6075 043e 689f 0ebe
00000290: 805a d93d ab84 f03d 186e 643e 96f9 60bd
000002a0: 5afb 9f3e 7199 203f fe0c 563e 3d64 a1be
000002b0: a6e3 12be 840b 59be 9b24 c3be 17c7 49be
000002c0: 6775 69be 4cfb 303e 7fc4 cbbd 567d 463d
000002d0: 8be1 09be 3e55 6b3e bac6 1dbe ff78 a63e
000002e0: 9b2d 833d b778 7abe 94bf acbe 39e2 80be
000002f0: acab b9bc 34de a53e 783f b13e 27ce 713e
00000300: 4e71 9bbe 242d 9cbe b204 bb3e d7a9 a7be
00000310: e9e0 c4be bad0 463e 03e1 bb3e a434 a0bd
00000320: 7c9e 363d 68d0 13be 00dc b4bd 1157 9abe
00000330: 4f21 0f3f 553a a03e e5d6 0bbe 2f51 793e
00000340: 9077 1fbd ae06 7fbe fda6 8f3d 1228 02bd
00000350: ec72 563d 1ae2 88bb 6a99 3abe b2d0 dcbe
00000360: 8c0c b23e 3479 0a3f afdd 4cbe 9a52 933d
00000370: b324 9fbe ce78 4cbe dc2b f63e af6c bb3d
00000380: 98da 8abb 399c 95be f1a5 24be 0d51 4fbe
00000390: 454f d73d 2fe3 36be 0610 a13e d6de d53e
000003a0: aeaf 95be 58bc 773b f54c a2bd 1f72 ca3e
000003b0: 3e79 8cbe 5868 a03c f8b1 933e 90b7 ec3d
000003c0: 8250 41be 9e2e 8ebc ba7b 973e 0809 753e
000003d0: 54bc 2cbe 622c 343e a5f7 353e ffaa 74be
000003e0: de80 53be 1a79 45be e658 6ebe b04c aebe
000003f0: 058d d73e 7082 0f3f 5ca7 eebe 2600 c03c

blocks.21.bias f4 [10]
0.030248402 -0.07651074 0.09919604 -0.09396489 -0.012813285 0.0044026775 -0.046553146 0.0056235045
0.025975093 0.06439622
00000000: 7fcb f73c aab1 9cbd 4b27 cb3d aa70 c0bd
00000010: d0ee 51bc 5644 903b 83ae 3ebd 6045 b83b
00000020: b8c9 d43c 2ae2 833d
